selfie_segmentation/selfie_segmentation_256_256.tflite (tflite, 454304 bytes, 109 tensors)

depthwise_conv2d_9/y f4 [16]
000000 00 a0 46 3f 00 a0 55 3e 00 80 d0 3e 00 80 7d be
       0.7758789 0.20861816 0.40722656 -0.2475586
000010 00 40 d7 bd 00 20 c1 bf 00 c0 d3 ba 00 e0 16 40
       -0.10510254 -1.5087891 -0.0016155243 2.3574219
000020 00 20 34 3d 00 60 41 be 00 e0 06 40 00 00 d1 bd
       0.04397583 -0.18884277 2.1074219 -0.10205078
000030 00 80 23 bf 00 20 92 be 00 a0 c2 bc 00 a0 b4 be
       -0.6386719 -0.2854004 -0.023757935 -0.3527832

depthwise_conv2d_8/y f4 [24]
000000 00 80 2c bf 00 80 93 bf 00 00 9d 3f 00 a0 f2 3f
       -0.6738281 -1.1523438 1.2265625 1.8955078
000010 00 c0 13 3f 00 40 d1 3d 00 c0 50 40 00 a0 b7 be
       0.57714844 0.10217285 3.2617188 -0.35864258
000020 00 60 a6 3c 00 60 ed 3e 00 60 f0 3e 00 e0 94 3f
       0.020309448 0.46362305 0.46948242 1.1630859
000030 00 e0 5c 40 00 a0 96 bf 00 20 3a bf 00 e0 6a 3f
       3.4511719 -1.1767578 -0.7270508 0.91748047
000040 00 40 ca 3d 00 00 3e bf 00 e0 a8 be 00 00 6a bf
       0.09875488 -0.7421875 -0.32983398 -0.9140625
000050 00 c0 84 bc 00 a0 82 bd 00 60 c9 3e 00 c0 cb be
       -0.016204834 -0.06378174 0.39331055 -0.39794922

depthwise_conv2d_2/y f4 [88]
000000 00 60 0b be 00 20 61 bf 00 00 1d 40 00 c0 9b 3f
       -0.1361084 -0.87939453 2.453125 1.2167969
000010 00 00 5d 3e 00 40 97 bf 00 00 60 40 00 40 04 41
       0.21582031 -1.1816406 3.5 8.265625
000020 00 a0 5c 3e 00 e0 18 3e 00 40 30 3e 00 e0 b4 c0
       0.2154541 0.14929199 0.17211914 -5.6523438
000030 00 c0 33 3d 00 40 bb be 00 e0 13 c0 00 e0 b4 be
       0.043884277 -0.36572266 -2.3105469 -0.35327148
000040 00 c0 c0 3e 00 c0 64 3d 00 60 2b 3f 00 c0 f4 be
       0.37646484 0.055847168 0.6694336 -0.47802734
000050 00 60 85 40 00 20 ef bf 00 80 81 c0 00 60 61 40
       4.1679688 -1.8681641 -4.046875 3.5214844
000060 00 a0 18 bf 00 80 c2 3d 00 c0 43 40 00 c0 4a bd
       -0.5961914 0.0949707 3.0585938 -0.04949951
000070 00 c0 38 40 00 80 36 3f 00 20 51 c0 00 60 a3 40
       2.8867188 0.7128906 -3.2675781 5.1054688
000080 00 a0 a7 be 00 a0 ec 3f 00 e0 9c bd 00 e0 1e c0
       -0.32739258 1.8486328 -0.07659912 -2.4824219
000090 00 20 0a bf 00 c0 b5 3e 00 80 39 c0 00 80 3e 3d
       -0.5395508 0.35498047 -2.8984375 0.04650879
0000a0 00 c0 1a bf 00 e0 a7 40 00 00 f3 be 00 80 32 40
       -0.6044922 5.2460938 -0.47460938 2.7890625
0000b0 00 c0 c6 bf 00 80 65 bd 00 00 cd be 00 80 00 c0
       -1.5527344 -0.056030273 -0.40039062 -2.0078125
0000c0 00 20 7d 40 00 a0 64 bf 00 a0 81 bf 00 c0 07 40
       3.9550781 -0.8930664 -1.0126953 2.1210938
0000d0 00 60 d8 bf 00 00 d8 3f 00 a0 53 40 00 20 86 41
       -1.6904297 1.6875 3.3066406 16.765625
0000e0 00 60 49 40 00 c0 ca c0 00 00 cf 3e 00 a0 4f bf
       3.1464844 -6.3359375 0.40429688 -0.81103516
0000f0 00 c0 56 40 00 c0 fa 3f 00 60 67 c0 00 60 49 3d
       3.3554688 1.9589844 -3.6152344 0.04916382
000100 00 20 d0 be 00 80 54 40 00 80 a0 bd 00 e0 3e 3f
       -0.40649414 3.3203125 -0.07836914 0.74560547
000110 00 00 11 c0 00 a0 88 bf 00 e0 0a c0 00 00 ac 3c
       -2.265625 -1.0673828 -2.1699219 0.020996094
000120 00 a0 82 be 00 a0 56 c0 00 00 f8 bd 00 60 25 be
       -0.25512695 -3.3535156 -0.12109375 -0.16149902
000130 00 40 fb bd 00 c0 79 40 00 80 39 40 00 60 25 3c
       -0.122680664 3.9023438 2.8984375 0.010093689
000140 00 80 87 bf 00 60 c2 3f 00 60 d2 c0 00 e0 41 40
       -1.0585938 1.5185547 -6.5742188 3.0292969
000150 00 80 75 be 00 00 c5 c0 00 a0 19 40 00 a0 4c bc
       -0.2397461 -6.15625 2.4003906 -0.012489319

depthwise_conv2d_10/y f4 [16]
000000 00 60 3a c1 00 a0 1d c0 00 60 30 c0 00 c0 42 c0
       -11.6484375 -2.4628906 -2.7558594 -3.0429688
000010 00 c0 01 c0 00 80 4b bf 00 e0 a9 3f 00 c0 de c1
       -2.0273438 -0.7949219 1.3271484 -27.84375
000020 00 20 45 3c 00 c0 7c 3c 00 40 6b bf 00 40 ba be
       0.012031555 0.015426636 -0.9189453 -0.36376953
000030 00 60 4b c0 00 e0 ae 3f 00 40 7a c1 00 20 bd 3f
       -3.1777344 1.3662109 -15.640625 1.4775391

depthwise_conv2d_1/y f4 [72]
000000 00 20 2f be 00 80 9e be 00 60 8f 3d 00 40 49 40
       -0.17102051 -0.3095703 0.070007324 3.1445312
000010 00 c0 a5 3e 00 60 58 40 00 e0 ab bd 00 c0 72 40
       0.32373047 3.3808594 -0.08392334 3.7929688
000020 00 60 2d 3e 00 80 e1 3e 00 e0 fd be 00 60 40 bd
       0.16931152 0.4404297 -0.4958496 -0.046966553
000030 00 60 39 40 00 e0 8c 40 00 e0 85 3e 00 60 8c 3d
       2.8964844 4.4023438 0.2614746 0.06854248
000040 00 60 8f 3b 00 e0 26 bf 00 20 22 3f 00 a0 54 be
       0.0043754578 -0.65185547 0.6333008 -0.2076416
000050 00 40 f3 bd 00 20 d3 3d 00 60 ef 40 00 40 a9 40
       -0.118774414 0.10308838 7.4804688 5.2890625
000060 00 00 e3 3c 00 c0 1b bf 00 20 62 40 00 a0 52 40
       0.027709961 -0.60839844 3.5332031 3.2910156
000070 00 00 8a 3e 00 40 f0 bc 00 60 2b bf 00 c0 48 40
       0.26953125 -0.029327393 -0.6694336 3.1367188
000080 00 20 43 3c 00 00 95 bb 00 80 ce bd 00 a0 3c 40
       0.011909485 -0.004547119 -0.10083008 2.9472656
000090 00 20 e1 be 00 40 46 bd 00 80 b1 3c 00 60 a3 40
       -0.43969727 -0.04840088 0.02166748 5.1054688
0000a0 00 60 cf 3f 00 a0 ed be 00 a0 93 3d 00 20 c8 bd
       1.6201172 -0.46411133 0.07208252 -0.097717285
0000b0 00 a0 7f 3f 00 40 74 3e 00 60 dd 3e 00 40 5c bd
       0.99853516 0.23852539 0.43237305 -0.053771973
0000c0 00 c0 2f bf 00 60 66 be 00 80 b8 40 00 c0 c8 40
       -0.68652344 -0.22497559 5.765625 6.2734375
0000d0 00 60 35 40 00 00 89 bd 00 00 a9 40 00 20 76 40
       2.8339844 -0.06689453 5.28125 3.8457031
0000e0 00 e0 9c bf 00 00 4d 3e 00 80 3a 3e 00 60 ba 3e
       -1.2255859 0.20019531 0.1821289 0.36401367
0000f0 00 40 44 3e 00 c0 cf 40 00 40 a1 bd 00 a0 09 40
       0.19165039 6.4921875 -0.07873535 2.1503906
000100 00 00 09 bf 00 20 21 be 00 20 65 be 00 20 20 41
       -0.53515625 -0.15734863 -0.22375488 10.0078125
000110 00 00 45 40 00 e0 4a 3e 00 40 21 3d 00 00 b1 40
       3.078125 0.19812012 0.039367676 5.53125

depthwise_conv2d/y f4 [16]
000000 00 a0 b2 3f 00 20 15 3d 00 80 fa 3c 00 40 fc bc
       1.3955078 0.03640747 0.030578613 -0.030792236
000010 00 e0 cd 3e 00 a0 e4 3f 00 a0 92 bc 00 20 82 be
       0.4020996 1.7861328 -0.01789856 -0.2541504
000020 00 40 7f 3f 00 a0 40 40 00 00 55 3d 00 a0 e6 bd
       0.9970703 3.0097656 0.052001953 -0.11260986
000030 00 e0 c3 3e 00 00 84 3e 00 80 77 3e 00 60 8c 3f
       0.38256836 0.2578125 0.24169922 1.0966797

conv2d_7_1/y f4 [88]
000000 00 c0 fa be 00 40 a2 3f 00 a0 74 40 00 00 f0 3f
       -0.4897461 1.2675781 3.8222656 1.875
000010 00 20 d1 3f 00 c0 87 3e 00 e0 4b 3f 00 00 4b 3f
       1.6337891 0.26513672 0.7963867 0.79296875
000020 00 60 37 40 00 e0 0e 40 00 60 18 40 00 60 3e 40
       2.8652344 2.2324219 2.3808594 2.9746094
000030 00 00 ea 3f 00 60 ef 3f 00 80 08 40 00 a0 0e 40
       1.828125 1.8701172 2.1328125 2.2285156
000040 00 00 75 3f 00 60 19 40 00 c0 00 40 00 e0 63 3f
       0.95703125 2.3964844 2.0117188 0.8901367
000050 00 80 d8 3f 00 c0 13 bf 00 a0 19 40 00 00 15 40
       1.6914062 -0.57714844 2.4003906 2.328125
000060 00 e0 01 40 00 20 02 3f 00 a0 7a bf 00 c0 07 40
       2.0292969 0.5083008 -0.9790039 2.1210938
000070 00 e0 02 be 00 40 cd 3f 00 40 fa 3f 00 40 98 bf
       -0.12780762 1.6035156 1.9550781 -1.1894531
000080 00 c0 08 40 00 c0 dd be 00 e0 c7 3f 00 a0 5f bf
       2.1367188 -0.43310547 1.5615234 -0.87353516
000090 00 a0 c4 3f 00 00 b0 3c 00 c0 06 40 00 e0 b2 3f
       1.5361328 0.021484375 2.1054688 1.3974609
0000a0 00 60 87 3f 00 60 08 40 00 20 a5 40 00 40 e7 3f
       1.0576172 2.1308594 5.1601562 1.8066406
0000b0 00 00 a1 3c 00 80 69 3f 00 e0 14 40 00 a0 3b 40
       0.01965332 0.9121094 2.3261719 2.9316406
0000c0 00 20 1e 40 00 a0 06 40 00 e0 a8 3f 00 20 82 3f
       2.4707031 2.1035156 1.3193359 1.0166016
0000d0 00 c0 80 bf 00 00 b1 3f 00 60 28 40 00 e0 92 40
       -1.0058594 1.3828125 2.6308594 4.5898438
0000e0 00 40 93 bf 00 80 06 40 00 e0 3e 40 00 40 25 bf
       -1.1503906 2.1015625 2.9824219 -0.6455078
0000f0 00 c0 af 3e 00 00 b6 3f 00 c0 40 40 00 40 ce 3f
       0.34326172 1.421875 3.0117188 1.6113281
000100 00 c0 ec bd 00 60 73 3f 00 60 a7 3f 00 20 e4 3f
       -0.115600586 0.9506836 1.3076172 1.7822266
000110 00 c0 95 bf 00 e0 e5 3d 00 60 d3 3f 00 a0 ec 3f
       -1.1699219 0.11224365 1.6513672 1.8486328
000120 00 80 d7 3f 00 e0 83 bf 00 e0 01 3f 00 e0 a3 3f
       1.6835938 -1.0302734 0.5073242 1.2802734
000130 00 c0 0b 40 00 c0 2a 40 00 40 23 40 00 60 09 40
       2.1835938 2.6679688 2.5507812 2.1464844
000140 00 a0 b7 3f 00 e0 47 40 00 20 dc 3f 00 60 6b 3f
       1.4345703 3.1230469 1.7197266 0.9194336
000150 00 80 fc 3f 00 e0 2b 40 00 80 dc 3f 00 c0 12 bf
       1.9726562 2.6855469 1.7226562 -0.5732422

conv2d_5_1/y f4 [72]
000000 00 60 74 40 00 60 71 40 00 e0 c8 40 00 20 e3 c0
       3.8183594 3.7714844 6.2773438 -7.0976562
000010 00 20 80 bf 00 e0 d9 40 00 e0 32 40 00 c0 87 3f
       -1.0009766 6.8085938 2.7949219 1.0605469
000020 00 00 f1 40 00 a0 20 40 00 20 77 40 00 20 fd 3f
       7.53125 2.5097656 3.8613281 1.9775391
000030 00 e0 bc 40 00 80 f1 41 00 60 f6 3f 00 e0 7c 40
       5.9023438 30.1875 1.9248047 3.9511719
000040 00 a0 d8 c0 00 e0 68 40 00 a0 53 40 00 00 38 40
       -6.7695312 3.6386719 3.3066406 2.875
000050 00 60 19 40 00 40 47 40 00 20 00 c1 00 40 a8 3f
       2.3964844 3.1132812 -8.0078125 1.3144531
000060 00 e0 48 40 00 60 17 be 00 80 83 be 00 00 bb 40
       3.1386719 -0.14782715 -0.25683594 5.84375
000070 00 00 e1 bc 00 20 03 40 00 20 2a 40 00 40 fd 3f
       -0.02746582 2.0488281 2.6582031 1.9785156
000080 00 e0 55 40 00 20 17 40 00 40 b5 be 00 c0 8d c1
       3.3417969 2.3613281 -0.3540039 -17.71875
000090 00 40 65 40 00 a0 04 40 00 a0 32 40 00 20 2e 41
       3.5820312 2.0722656 2.7910156 10.8828125
0000a0 00 20 b0 40 00 00 0a 40 00 00 10 40 00 60 48 40
       5.5039062 2.15625 2.25 3.1308594
0000b0 00 80 51 3f 00 20 10 40 00 c0 e7 bf 00 00 1c 40
       0.8183594 2.2519531 -1.8105469 2.4375
0000c0 00 00 05 40 00 80 46 40 00 00 3c 40 00 00 16 41
       2.078125 3.1015625 2.9375 9.375
0000d0 00 c0 e2 bf 00 80 af 40 00 e0 94 3f 00 20 b6 c0
       -1.7714844 5.484375 1.1630859 -5.6914062
0000e0 00 20 9f bf 00 60 3b 40 00 60 7c 40 00 80 bd 40
       -1.2431641 2.9277344 3.9433594 5.921875
0000f0 00 40 ae 40 00 e0 35 be 00 e0 2e 40 00 40 85 c1
       5.4453125 -0.1776123 2.7324219 -16.65625
000100 00 20 2a 40 00 20 e2 be 00 a0 e5 3f 00 20 96 be
       2.6582031 -0.4416504 1.7939453 -0.2932129
000110 00 c0 0c 40 00 80 1d c1 00 40 02 40 00 40 06 c1
       2.1992188 -9.84375 2.0351562 -8.390625

conv2d_42_1/y f4 [16]
000000 00 20 92 3d 00 a0 0a bf 00 60 b3 bf 00 a0 b2 bf
       0.0713501 -0.5415039 -1.4013672 -1.3955078
000010 00 40 ae bd 00 a0 84 be 00 a0 3e c0 00 00 65 bd
       -0.08508301 -0.2590332 -2.9785156 -0.055908203
000020 00 60 ff 3e 00 80 67 c0 00 40 92 3e 00 a0 93 3e
       0.4987793 -3.6171875 0.28564453 0.28833008
000030 00 00 89 bf 00 e0 e7 bf 00 c0 90 bb 00 80 84 bf
       -1.0703125 -1.8115234 -0.0044174194 -1.0351562

conv2d_40_1/y f4 [16]
000000 00 00 4d bd 00 80 09 c0 00 e0 38 c0 00 e0 8d 3f
       -0.050048828 -2.1484375 -2.8886719 1.1083984
000010 00 80 23 bf 00 c0 47 c0 00 60 a4 bf 00 20 d5 3e
       -0.6386719 -3.1210938 -1.2841797 0.41625977
000020 00 e0 42 3f 00 a0 81 3e 00 20 13 3f 00 80 d7 bf
       0.76123047 0.25317383 0.57470703 -1.6835938
000030 00 a0 90 c0 00 a0 59 3e 00 40 a1 bf 00 80 39 3f
       -4.5195312 0.21252441 -1.2597656 0.7246094

conv2d_38_1/y f4 [16]
000000 00 c0 b5 3e 00 00 2d 3f 00 e0 f0 3e 00 40 06 be
       0.35498047 0.67578125 0.47045898 -0.13110352
000010 00 40 0f bf 00 c0 93 3f 00 00 43 3f 00 20 ba be
       -0.5595703 1.1542969 0.76171875 -0.3635254
000020 00 e0 29 3f 00 20 d9 3e 00 60 99 be 00 80 4e 3f
       0.6635742 0.42407227 -0.29956055 0.8066406
000030 00 80 a6 3e 00 e0 87 bd 00 20 46 3e 00 80 ab bf
       0.3251953 -0.066345215 0.19348145 -1.3398438

conv2d_36_1/y f4 [16]
000000 00 e0 bf bf 00 60 92 bf 00 20 da bf 00 a0 0c 3f
       -1.4990234 -1.1435547 -1.7041016 0.5493164
000010 00 40 62 c0 00 e0 14 3d 00 e0 ea 3e 00 80 5c c0
       -3.5351562 0.036346436 0.45874023 -3.4453125
000020 00 60 b9 bf 00 20 6d bf 00 00 01 bf 00 00 29 c0
       -1.4482422 -0.92626953 -0.50390625 -2.640625
000030 00 20 33 3e 00 80 0e c0 00 20 15 c0 00 00 1c c0
       0.17492676 -2.2265625 -2.3300781 -2.4375

conv2d_34_1/y f4 [24]
000000 00 c0 41 3e 00 80 eb 3e 00 80 a0 3f 00 80 0f 3f
       0.18920898 0.45996094 1.2539062 0.5605469
000010 00 e0 1e 3f 00 c0 64 3f 00 c0 1d 3d 00 e0 a0 3e
       0.62060547 0.8935547 0.038513184 0.31420898
000020 00 60 83 be 00 c0 95 bd 00 20 16 3e 00 60 a3 3f
       -0.2565918 -0.07312012 0.14660645 1.2763672
000030 00 40 52 3e 00 00 56 3f 00 60 7c 3e 00 20 7f 3e
       0.20532227 0.8359375 0.24645996 0.24914551
000040 00 e0 23 3f 00 c0 42 3e 00 c0 80 be 00 80 8f 39
       0.6401367 0.19018555 -0.25146484 0.00027370453
000050 00 00 d3 3d 00 40 59 3f 00 40 27 40 00 60 36 3f
       0.103027344 0.8486328 2.6132812 0.71240234

conv2d_32_1/y f4 [24]
000000 00 00 df bf 00 c0 36 c0 00 00 08 c0 00 80 49 c0
       -1.7421875 -2.8554688 -2.125 -3.1484375
000010 00 e0 cf bf 00 80 31 3e 00 00 1b c0 00 80 88 bf
       -1.6240234 0.17333984 -2.421875 -1.0664062
000020 00 e0 40 3d 00 e0 45 3f 00 60 da bf 00 20 ca be
       0.047088623 0.7729492 -1.7060547 -0.3947754
000030 00 e0 22 bf 00 80 d9 bf 00 c0 df bf 00 a0 59 bd
       -0.63623047 -1.6992188 -1.7480469 -0.053131104
000040 00 00 db be 00 40 98 bf 00 20 ce bf 00 00 07 c0
       -0.42773438 -1.1894531 -1.6103516 -2.109375
000050 00 a0 c7 bf 00 40 6d 3f 00 60 c8 3d 00 c0 93 bf
       -1.5595703 0.9267578 0.097839355 -1.1542969

conv2d_2_1/y f4 [8]
000000 00 c0 a6 be 00 00 d1 bd 00 40 19 3e 00 40 c0 3e
       -0.3256836 -0.10205078 0.1496582 0.37548828
000010 00 a0 54 3f 00 00 dd 3e 00 e0 ed 3e 00 80 2e be
       0.8305664 0.43164062 0.4645996 -0.17041016

conv2d_29_1/y f4 [128]
000000 00 40 13 c0 00 c0 d7 bf 00 00 9e bf 00 80 8a bc
       -2.3007812 -1.6855469 -1.234375 -0.016906738
000010 00 20 73 bf 00 a0 5a bf 00 a0 8a bf 00 60 e1 bf
       -0.94970703 -0.8540039 -1.0830078 -1.7607422
000020 00 a0 aa bf 00 60 a2 bf 00 40 b8 3e 00 60 c0 bf
       -1.3330078 -1.2685547 0.35986328 -1.5029297
000030 00 a0 0a c0 00 20 d9 bf 00 e0 21 bf 00 80 d5 be
       -2.1660156 -1.6962891 -0.6323242 -0.4169922
000040 00 40 7b bf 00 e0 c7 bf 00 80 be bf 00 a0 76 be
       -0.9814453 -1.5615234 -1.4882812 -0.24084473
000050 00 80 cc bf 00 e0 83 bf 00 00 5b bf 00 a0 d6 bf
       -1.5976562 -1.0302734 -0.85546875 -1.6767578
000060 00 00 89 bf 00 20 e6 be 00 60 b2 bf 00 40 05 bf
       -1.0703125 -0.4494629 -1.3935547 -0.5205078
000070 00 20 94 3d 00 a0 02 3f 00 e0 da bf 00 20 43 bf
       0.07232666 0.5102539 -1.7099609 -0.76220703
000080 00 60 e1 be 00 40 b6 bf 00 60 cd 3e 00 e0 3f 3f
       -0.44018555 -1.4238281 0.40112305 0.7495117
000090 00 e0 cd bf 00 00 0f c0 00 40 21 bf 00 c0 57 bf
       -1.6083984 -2.234375 -0.6298828 -0.84277344
0000a0 00 e0 6f be 00 20 26 bd 00 00 dd bf 00 20 08 bf
       -0.23425293 -0.04055786 -1.7265625 -0.5317383
0000b0 00 40 55 bf 00 60 15 bf 00 a0 07 bf 00 80 3c 3f
       -0.8330078 -0.5834961 -0.52978516 0.7363281
0000c0 00 00 c2 bf 00 c0 fe be 00 a0 19 be 00 00 51 bf
       -1.515625 -0.4975586 -0.15002441 -0.81640625
0000d0 00 80 e0 bf 00 60 95 bf 00 20 1f c0 00 c0 04 c0
       -1.7539062 -1.1669922 -2.4863281 -2.0742188
0000e0 00 60 3b 3f 00 60 a3 bf 00 60 37 3f 00 e0 8a bf
       0.7319336 -1.2763672 0.7163086 -1.0849609
0000f0 00 80 11 c0 00 c0 65 bf 00 00 ce be 00 a0 89 bf
       -2.2734375 -0.89746094 -0.40234375 -1.0751953
000100 00 a0 69 bf 00 c0 a6 3e 00 40 0b bf 00 c0 87 bf
       -0.91259766 0.3256836 -0.5439453 -1.0605469
000110 00 80 a5 bf 00 40 5a bf 00 80 4c bf 00 20 a8 bf
       -1.2929688 -0.85253906 -0.7988281 -1.3134766
000120 00 e0 ef bf 00 c0 75 be 00 00 2a be 00 e0 eb bf
       -1.8740234 -0.23999023 -0.16601562 -1.8427734
000130 00 40 87 be 00 00 c3 3d 00 80 82 be 00 a0 19 c0
       -0.26416016 0.095214844 -0.2548828 -2.4003906
000140 00 c0 9e bf 00 c0 49 bf 00 00 00 bf 00 c0 79 bf
       -1.2402344 -0.78808594 -0.5 -0.97558594
000150 00 e0 46 bf 00 40 1b c0 00 60 4e c0 00 e0 94 bf
       -0.77685547 -2.4257812 -3.2246094 -1.1630859
000160 00 a0 2b bf 00 c0 2b c0 00 e0 e6 bf 00 00 89 bf
       -0.67041016 -2.6835938 -1.8037109 -1.0703125
000170 00 20 c1 bf 00 c0 34 bf 00 40 94 bf 00 e0 9f bf
       -1.5087891 -0.7060547 -1.1582031 -1.2490234
000180 00 e0 b5 bf 00 a0 3f c0 00 a0 c0 bf 00 00 e7 be
       -1.4208984 -2.9941406 -1.5048828 -0.45117188
000190 00 40 db bf 00 20 67 bf 00 00 84 bf 00 40 a6 bf
       -1.7128906 -0.90283203 -1.03125 -1.2988281
0001a0 00 e0 f2 bf 00 a0 1a bf 00 00 96 bf 00 60 8c bf
       -1.8974609 -0.6040039 -1.171875 -1.0966797
0001b0 00 c0 2a c0 00 e0 cc be 00 60 f5 be 00 a0 81 bf
       -2.6679688 -0.40014648 -0.47924805 -1.0126953
0001c0 00 a0 ca be 00 60 ac bf 00 40 be 3e 00 00 bd bf
       -0.39575195 -1.3466797 0.37158203 -1.4765625
0001d0 00 c0 e2 3e 00 00 ad be 00 e0 e3 bf 00 40 a7 bf
       0.4428711 -0.33789062 -1.7802734 -1.3066406
0001e0 00 a0 43 bf 00 40 3a bf 00 60 ce bf 00 c0 a0 bf
       -0.76416016 -0.72753906 -1.6123047 -1.2558594
0001f0 00 e0 36 bf 00 c0 81 bf 00 c0 ba be 00 20 f5 bf
       -0.71435547 -1.0136719 -0.3647461 -1.9150391

conv2d_26_1/y f4 [24]
000000 00 c0 9f be 00 80 44 bf 00 a0 21 bf 00 e0 fd bf
       -0.31201172 -0.7675781 -0.63134766 -1.9833984
000010 00 00 da be 00 00 69 bf 00 00 71 3d 00 c0 26 bf
       -0.42578125 -0.91015625 0.05883789 -0.6513672
000020 00 40 c4 bf 00 60 f9 be 00 a0 e9 be 00 e0 99 be
       -1.5332031 -0.48706055 -0.45629883 -0.3005371
000030 00 80 cc 3e 00 00 1f bf 00 60 61 bf 00 e0 52 bf
       0.39941406 -0.62109375 -0.8803711 -0.82373047
000040 00 20 ec bc 00 e0 8b bf 00 e0 8d bf 00 c0 c5 be
       -0.028823853 -1.0927734 -1.1083984 -0.38623047
000050 00 a0 ac be 00 60 10 be 00 60 d0 be 00 80 93 3e
       -0.3371582 -0.14099121 -0.40698242 0.28808594

conv2d_22_1/y f4 [24]
000000 00 e0 1e bf 00 e0 f7 be 00 80 8f bd 00 00 41 bf
       -0.62060547 -0.48413086 -0.07006836 -0.75390625
000010 00 20 40 bf 00 00 c7 bf 00 a0 11 bf 00 c0 f8 be
       -0.7504883 -1.5546875 -0.56884766 -0.48583984
000020 00 c0 61 3e 00 40 12 bf 00 e0 e7 be 00 60 27 bf
       0.22045898 -0.57128906 -0.45288086 -0.6538086
000030 00 20 13 bf 00 e0 3f bd 00 a0 3f bf 00 a0 83 bc
       -0.57470703 -0.046844482 -0.74853516 -0.016067505
000040 00 00 b0 3e 00 80 99 be 00 20 2f bf 00 e0 94 bd
       0.34375 -0.2998047 -0.68408203 -0.07269287
000050 00 80 16 bf 00 a0 67 bf 00 60 e6 3e 00 80 82 bf
       -0.5878906 -0.90478516 0.44995117 -1.0195312

conv2d_1_1/y f4 [16]
000000 00 00 03 40 00 20 1f 40 00 40 a5 40 00 80 d6 be
       2.046875 2.4863281 5.1640625 -0.4189453
000010 00 00 3d 3e 00 a0 05 40 00 e0 ac 40 00 20 59 3f
       0.18457031 2.0878906 5.4023438 0.84814453
000020 00 20 73 40 00 60 7f 40 00 c0 96 c0 00 a0 31 40
       3.7988281 3.9902344 -4.7109375 2.7753906
000030 00 c0 d0 3f 00 c0 3c 40 00 60 cb 3f 00 40 06 bf
       1.6308594 2.9492188 1.5888672 -0.52441406

conv2d_18_1/y f4 [32]
000000 00 a0 34 bf 00 60 98 be 00 80 1b bf 00 00 2d bf
       -0.7055664 -0.29760742 -0.6074219 -0.67578125
000010 00 e0 1d bf 00 a0 14 bd 00 e0 06 3f 00 e0 91 3f
       -0.6166992 -0.0362854 0.52685547 1.1396484
000020 00 40 87 bf 00 20 02 bf 00 a0 05 bf 00 e0 7f bf
       -1.0566406 -0.5083008 -0.52197266 -0.9995117
000030 00 e0 8f bf 00 c0 27 be 00 20 f7 be 00 00 45 bf
       -1.1240234 -0.16381836 -0.48266602 -0.76953125
000040 00 c0 ae be 00 60 c9 be 00 e0 8b bf 00 40 43 bf
       -0.3413086 -0.39331055 -1.0927734 -0.7626953
000050 00 e0 38 bf 00 40 40 bf 00 20 6e bd 00 60 22 bf
       -0.72216797 -0.75097656 -0.058135986 -0.63427734
000060 00 60 c8 be 00 00 aa 3d 00 a0 5b bf 00 e0 d4 be
       -0.39135742 0.08300781 -0.85791016 -0.41577148
000070 00 60 0f bf 00 80 61 be 00 40 1c bf 00 00 ef be
       -0.5600586 -0.22021484 -0.61035156 -0.46679688

conv2d_14_1/y f4 [32]
000000 00 60 9f be 00 20 c7 3e 00 80 ac be 00 60 e7 be
       -0.3112793 0.38891602 -0.33691406 -0.4519043
000010 00 40 24 be 00 40 f5 be 00 c0 af be 00 20 f1 be
       -0.16040039 -0.4790039 -0.34326172 -0.47094727
000020 00 a0 13 3f 00 a0 0e be 00 c0 d1 bd 00 20 36 be
       0.57666016 -0.13928223 -0.10241699 -0.17785645
000030 00 20 05 bf 00 a0 f1 be 00 e0 c0 bc 00 e0 85 be
       -0.52001953 -0.47192383 -0.023544312 -0.2614746
000040 00 c0 4b bf 00 40 ac be 00 60 ff 3e 00 a0 ad bd
       -0.79589844 -0.33642578 0.4987793 -0.08477783
000050 00 c0 a2 3d 00 20 20 be 00 20 13 bd 00 a0 be bd
       0.07946777 -0.15637207 -0.03591919 -0.09307861
000060 00 c0 4b bf 00 00 6e be 00 e0 6d be 00 a0 21 be
       -0.79589844 -0.23242188 -0.2322998 -0.15783691
000070 00 80 01 be 00 c0 75 be 00 a0 0c be 00 c0 98 3e
       -0.12646484 -0.23999023 -0.1373291 0.29833984

conv2d_10_1/y f4 [24]
000000 00 60 b6 be 00 40 27 bf 00 80 b4 3e 00 80 eb be
       -0.35620117 -0.6533203 0.35253906 -0.45996094
000010 00 00 87 bf 00 c0 cb 3e 00 a0 f2 3d 00 80 22 be
       -1.0546875 0.39794922 0.11846924 -0.1586914
000020 00 c0 76 bf 00 20 b8 be 00 40 e8 3e 00 00 d6 be
       -0.9638672 -0.35961914 0.45361328 -0.41796875
000030 00 c0 3f be 00 e0 82 be 00 a0 f2 bd 00 00 db bd
       -0.18725586 -0.25561523 -0.11846924 -0.106933594
000040 00 a0 3b be 00 60 4f 3e 00 80 3b be 00 e0 b7 be
       -0.18322754 0.20251465 -0.18310547 -0.35913086
000050 00 60 0a 3f 00 a0 e5 3e 00 00 22 3f 00 a0 e2 be
       0.54052734 0.44848633 0.6328125 -0.44262695

Conv2D f4 [16, 3, 3, 3]
000000 00 00 5a c1 00 40 5e 40 00 c0 21 41 00 20 86 c0
       -13.625 3.4726562 10.109375 -4.1914062
000010 00 80 05 40 00 60 0c 3e 00 80 03 3f 00 e0 15 c0
       2.0859375 0.13708496 0.5136719 -2.3417969
000020 00 c0 c8 c0 00 40 98 c1 00 00 25 c1 00 40 64 c0
       -6.2734375 -19.03125 -10.3125 -3.5664062
000030 00 60 cb 41 00 e0 a0 41 00 20 7d 41 00 e0 3a 40
       25.421875 20.109375 15.8203125 2.9199219
000040 00 60 b6 c0 00 80 3a c1 00 e0 ff 3f 00 a0 03 40
       -5.6992188 -11.65625 1.9990234 2.0566406
000050 00 00 fc 40 00 40 38 c0 00 c0 10 c1 00 c0 03 c1
       7.875 -2.8789062 -9.046875 -8.234375
000060 00 00 1b 41 00 c0 ce bf 00 a0 68 c0 00 80 13 c1
       9.6875 -1.6152344 -3.6347656 -9.21875
000070 00 40 a6 c1 00 c0 dd c1 00 80 f9 41 00 60 b0 41
       -20.78125 -27.71875 31.1875 22.046875
000080 00 80 9f 41 00 c0 c1 c0 00 e0 cc c0 00 a0 19 c1
       19.9375 -6.0546875 -6.4023438 -9.6015625
000090 00 e0 85 41 00 40 49 41 00 00 5f 41 00 e0 21 c1
       16.734375 12.578125 13.9375 -10.1171875
0000a0 00 c0 1f c1 00 40 ac bf 00 e0 25 c1 00 80 84 c0
       -9.984375 -1.3457031 -10.3671875 -4.140625
0000b0 00 c0 7d bf 00 e0 9c 40 00 40 a3 40 00 60 ac 40
       -0.99121094 4.9023438 5.1015625 5.3867188
0000c0 00 00 ba c1 00 a0 8f c1 00 e0 5d c1 00 60 e1 40
       -23.25 -17.953125 -13.8671875 7.0429688
0000d0 00 60 81 41 00 e0 84 41 00 40 94 3e 00 c0 6a 3e
       16.171875 16.609375 0.28955078 0.22924805
0000e0 00 c0 d8 3d 00 80 b3 3e 00 00 18 3e 00 a0 d0 bd
       0.10583496 0.35058594 0.1484375 -0.101867676
0000f0 00 c0 d6 3e 00 e0 86 3e 00 80 7e 3e 00 40 31 3f
       0.4194336 0.26342773 0.24853516 0.6923828
000100 00 c0 00 3f 00 60 ac 3d 00 40 14 3f 00 c0 6f 3e
       0.5029297 0.08416748 0.57910156 0.23413086
000110 00 a0 9f be 00 60 a6 3e 00 e0 a2 3e 00 60 18 3e
       -0.31176758 0.32495117 0.31811523 0.14880371
000120 00 c0 62 bc 00 00 f2 3d 00 a0 40 3c 00 e0 73 3e
       -0.013839722 0.11816406 0.011756897 0.23815918
000130 00 20 c6 3e 00 40 68 3d 00 00 cb be 00 20 3c be
       0.3869629 0.05670166 -0.39648438 -0.18371582
000140 00 20 98 bd 00 00 cd be 00 00 9c be 00 80 1d be
       -0.074279785 -0.40039062 -0.3046875 -0.1538086
000150 00 e0 cf be 00 20 ac be 00 20 9c 3c 00 a0 a7 be
       -0.40600586 -0.33618164 0.019058228 -0.32739258
000160 00 e0 75 be 00 e0 17 be 00 80 ca be 00 60 b8 be
       -0.2401123 -0.14831543 -0.3955078 -0.36010742
000170 00 e0 c0 bd 00 60 03 bf 00 80 9d be 00 20 b8 3e
       -0.094177246 -0.5131836 -0.3076172 0.35961914
000180 00 a0 ff be 00 00 94 be 00 c0 1d bd 00 c0 82 bd
       -0.49926758 -0.2890625 -0.038513184 -0.06384277
000190 00 a0 95 bd 00 e0 10 be 00 a0 21 be 00 00 c9 bc
       -0.07305908 -0.14147949 -0.15783691 -0.024536133
0001a0 00 a0 25 3e 00 00 18 be 00 20 c8 3d 00 e0 fb 3d
       0.16174316 -0.1484375 0.097717285 0.12298584
0001b0 00 80 01 c0 00 40 10 c0 00 60 29 c0 00 c0 22 40
       -2.0234375 -2.2539062 -2.6464844 2.5429688
0001c0 00 e0 05 40 00 60 d8 3f 00 60 ad 40 00 80 9f 40
       2.0917969 1.6904297 5.4179688 4.984375
0001d0 00 20 83 40 00 00 b9 c0 00 40 bd c0 00 c0 a9 c0
       4.0976562 -5.78125 -5.9140625 -5.3046875
0001e0 00 40 6a bf 00 00 89 bf 00 60 ff bd 00 80 c1 40
       -0.91503906 -1.0703125 -0.124694824 6.046875
0001f0 00 40 b8 40 00 c0 b9 40 00 00 a7 c0 00 00 9b c0
       5.7578125 5.8046875 -5.21875 -4.84375
000200 00 80 92 c0 00 20 07 c0 00 c0 d3 bf 00 80 7c bf
       -4.578125 -2.1113281 -1.6542969 -0.9863281
000210 00 e0 0a 40 00 a0 12 40 00 60 06 40 00 80 bc be
       2.1699219 2.2910156 2.0996094 -0.36816406
000220 00 e0 f7 3e 00 80 de 3e 00 c0 41 bf 00 40 23 3f
       0.48413086 0.4345703 -0.75683594 0.6376953
000230 00 40 29 3f 00 a0 7d be 00 00 fa 3e 00 00 82 3e
       0.6611328 -0.24768066 0.48828125 0.25390625
000240 00 a0 90 bf 00 c0 7f 3e 00 20 42 3f 00 40 d6 bf
       -1.1298828 0.24975586 0.7583008 -1.6738281
000250 00 80 3c 3f 00 c0 ad 3f 00 e0 2c bf 00 60 ee 3e
       0.7363281 1.3574219 -0.67529297 0.46557617
000260 00 40 01 3f 00 c0 89 be 00 20 71 3d 00 00 e4 3e
       0.5048828 -0.26904297 0.05886841 0.4453125
000270 00 00 62 bf 00 40 48 3e 00 00 47 3f 00 00 8c bd
       -0.8828125 0.19555664 0.77734375 -0.068359375
000280 00 a0 ce 3e 00 20 a4 3e 00 c0 58 c0 00 00 6e c0
       0.40356445 0.32055664 -3.3867188 -3.71875
000290 00 40 83 c0 00 20 f7 3f 00 60 86 40 00 e0 24 40
       -4.1015625 1.9306641 4.1992188 2.5761719
0002a0 00 e0 53 c0 00 20 43 c0 00 60 0b c0 00 20 a6 be
       -3.3105469 -3.0488281 -2.1777344 -0.3244629
0002b0 00 00 a5 3f 00 80 ac 3f 00 c0 98 40 00 60 1c 41
       1.2890625 1.3476562 4.7734375 9.7734375
0002c0 00 80 06 41 00 40 61 bf 00 a0 0a 3f 00 a0 5d 3f
       8.40625 -0.8798828 0.5415039 0.86572266
0002d0 00 20 0a c0 00 a0 2e c0 00 40 e2 bf 00 40 76 3e
       -2.1582031 -2.7285156 -1.7675781 0.24047852
0002e0 00 00 21 3f 00 e0 b9 3f 00 60 16 c0 00 a0 45 c0
       0.62890625 1.4521484 -2.3496094 -3.0878906
0002f0 00 80 ee bf 00 c0 35 40 00 20 fc bf 00 00 d2 bf
       -1.8632812 2.8398438 -1.9697266 -1.640625
000300 00 e0 99 40 00 e0 f6 bf 00 c0 b3 bf 00 40 33 3f
       4.8085938 -1.9287109 -1.4042969 0.7001953
000310 00 00 9a bf 00 80 68 be 00 00 32 40 00 c0 f4 bf
       -1.203125 -0.22705078 2.78125 -1.9121094
000320 00 60 00 c0 00 60 b5 40 00 a0 b0 bf 00 40 9c bf
       -2.0058594 5.6679688 -1.3798828 -1.2207031
000330 00 c0 a6 3f 00 e0 7b bf 00 60 c8 be 00 e0 23 3f
       1.3027344 -0.9838867 -0.39135742 0.6401367
000340 00 20 d1 be 00 20 62 bf 00 e0 9b 3f 00 a0 31 bf
       -0.40844727 -0.8833008 1.2177734 -0.69384766
000350 00 60 46 bf 00 a0 04 be 00 a0 93 3a 00 60 bb 3b
       -0.77490234 -0.1295166 0.0011262894 0.005718231
000360 00 80 69 3e 00 80 54 be 00 60 3e be 00 20 03 3e
       0.22802734 -0.20751953 -0.18591309 0.12805176
000370 00 80 02 bf 00 e0 17 bf 00 a0 c7 bc 00 a0 87 be
       -0.5097656 -0.5932617 -0.024368286 -0.26489258
000380 00 c0 a7 3a 00 e0 db 3e 00 20 8b be 00 00 0c bf
       0.0012798309 0.42944336 -0.27172852 -0.546875
000390 00 c0 a8 3e 00 00 63 bf 00 80 c8 bf 00 a0 c7 3e
       0.32958984 -0.88671875 -1.5664062 0.38989258
0003a0 00 20 3b be 00 a0 29 be 00 a0 1b 3e 00 a0 20 be
       -0.18273926 -0.16564941 0.15197754 -0.15686035
0003b0 00 20 1b be 00 60 3c 3e 00 a0 a6 be 00 e0 02 bf
       -0.15148926 0.18395996 -0.32543945 -0.51123047
0003c0 00 80 93 3d 00 00 92 be 00 c0 a1 be 00 a0 7b bf
       0.072021484 -0.28515625 -0.31591797 -0.98291016
0003d0 00 80 a9 bc 00 e0 23 3f 00 c0 a5 bf 00 60 07 3f
       -0.020690918 0.6401367 -1.2949219 0.5288086
0003e0 00 c0 af 3f 00 60 5f bf 00 80 81 3d 00 00 0c 3f
       1.3730469 -0.8725586 0.06323242 0.546875
0003f0 00 20 c7 bf 00 80 c4 3e 00 20 9c 3f 00 40 24 c0
       -1.5556641 0.38378906 1.2197266 -2.5664062

Conv2D_2 f4 [16, 1, 1, 16]
000000 00 00 1e bd 00 20 31 3d 00 00 3a 3f 00 60 cd 3e
       -0.03857422 0.04324341 0.7265625 0.40112305
000010 00 20 3b bc 00 60 34 be 00 20 a5 3d 00 c0 dc 3c
       -0.011421204 -0.17614746 0.08062744 0.026947021
000020 00 60 3d 3f 00 00 16 bf 00 40 3f 3d 00 c0 98 3e
       0.7397461 -0.5859375 0.046691895 0.29833984
000030 00 60 b0 bf 00 c0 b8 3c 00 80 4c be 00 80 5f 3e
       -1.3779297 0.02255249 -0.19970703 0.21826172
000040 00 c0 a4 3e 00 e0 e7 3e 00 00 cb be 00 80 20 be
       0.32177734 0.45288086 -0.39648438 -0.15673828
000050 00 e0 3d be 00 00 05 be 00 e0 0a be 00 00 f5 bd
       -0.1854248 -0.12988281 -0.13562012 -0.119628906
000060 00 00 04 bf 00 00 94 bd 00 00 15 3e 00 00 c1 3e
       -0.515625 -0.072265625 0.14550781 0.37695312
000070 00 c0 08 be 00 80 46 bd 00 60 6a be 00 40 76 3c
       -0.13354492 -0.048461914 -0.22888184 0.015029907
000080 00 c0 35 be 00 a0 29 be 00 60 c4 3d 00 80 c2 3e
       -0.17749023 -0.16564941 0.09588623 0.3798828
000090 00 40 e7 bf 00 c0 28 3e 00 60 db bd 00 40 4c 3d
       -1.8066406 0.16479492 -0.1071167 0.049865723
0000a0 00 20 08 bc 00 a0 bc bc 00 60 ed bc 00 80 1a bf
       -0.008308411 -0.023025513 -0.02897644 -0.6035156
0000b0 00 a0 0a bd 00 c0 a5 3e 00 60 2d bd 00 00 cd 3d
       -0.033843994 0.32373047 -0.04232788 0.100097656
0000c0 00 20 ab bd 00 a0 99 bd 00 20 8d bd 00 e0 9b 3e
       -0.08355713 -0.07501221 -0.06890869 0.30444336
0000d0 00 c0 a5 3d 00 20 50 3e 00 40 c6 bd 00 a0 c3 3e
       0.08093262 0.20324707 -0.09680176 0.38208008
0000e0 00 e0 08 be 00 e0 86 3f 00 a0 df bc 00 40 db be
       -0.13366699 1.0537109 -0.027297974 -0.42822266
0000f0 00 80 a0 3f 00 c0 29 3d 00 c0 8f bd 00 60 77 bf
       1.2539062 0.04144287 -0.07019043 -0.9663086
000100 00 c0 d7 3c 00 60 5c be 00 a0 41 3c 00 80 67 3e
       0.02633667 -0.21520996 0.011817932 0.22607422
000110 00 c0 fe 3f 00 40 0e 3d 00 60 d0 3d 00 00 e9 bd
       1.9902344 0.034729004 0.101745605 -0.11376953
000120 00 00 3c be 00 40 92 bd 00 e0 5d 3d 00 20 b0 bf
       -0.18359375 -0.07141113 0.0541687 -1.3759766
000130 00 a0 a8 bd 00 80 db bf 00 40 83 be 00 e0 d6 3e
       -0.082336426 -1.7148438 -0.25634766 0.41967773
000140 00 c0 ad 3c 00 00 93 3c 00 e0 0d 3f 00 20 a4 3e
       0.021209717 0.017944336 0.5541992 0.32055664
000150 00 a0 fd 3b 00 40 0f bd 00 40 00 3c 00 80 15 3e
       0.0077400208 -0.034973145 0.007827759 0.1459961
000160 00 c0 2b 3e 00 00 c4 bd 00 00 87 3c 00 60 72 bd
       0.16772461 -0.095703125 0.016479492 -0.059173584
000170 00 40 bd 3e 00 60 50 bc 00 a0 8c be 00 e0 a5 be
       0.3696289 -0.012718201 -0.2746582 -0.3239746
000180 00 40 9a bd 00 00 ce bc 00 60 33 bc 00 00 81 3d
       -0.07531738 -0.025146484 -0.010948181 0.06298828
000190 00 a0 ad 3a 00 e0 d0 be 00 c0 2c 39 00 00 04 bf
       0.0013246536 -0.40795898 0.00016474724 -0.515625
0001a0 00 20 f7 bd 00 a0 ff be 00 60 46 3d 00 20 2e 3e
       -0.120666504 -0.49926758 0.048431396 0.17004395
0001b0 00 80 62 be 00 60 f3 3c 00 80 29 c0 00 c0 e2 bd
       -0.2211914 0.029708862 -2.6484375 -0.11071777
0001c0 00 00 ee 3d 00 20 d2 3d 00 40 40 3f 00 40 65 3c
       0.11621094 0.1026001 0.75097656 0.01399231
0001d0 00 40 71 bd 00 c0 6d 3e 00 20 33 bd 00 40 b1 3d
       -0.058898926 0.23217773 -0.04373169 0.08654785
0001e0 00 60 c3 3d 00 20 88 bc 00 00 51 3c 00 60 9d 3e
       0.09539795 -0.016616821 0.012756348 0.30737305
0001f0 00 80 c9 3c 00 a0 44 3d 00 c0 eb 3d 00 60 65 bd
       0.024597168 0.04800415 0.115112305 -0.055999756
000200 00 c0 0a 3d 00 00 8d 3b 00 a0 81 3e 00 40 11 3f
       0.03387451 0.0043029785 0.25317383 0.5673828
000210 00 e0 47 be 00 e0 d1 3d 00 20 d2 bc 00 a0 65 bd
       -0.19519043 0.10247803 -0.025650024 -0.05606079
000220 00 80 6f be 00 c0 19 be 00 40 f0 3c 00 20 59 bf
       -0.23388672 -0.15014648 0.029327393 -0.84814453
000230 00 e0 6c bd 00 60 32 3e 00 60 14 3d 00 a0 3e 3e
       -0.05783081 0.17419434 0.036224365 0.18615723
000240 00 60 c7 bd 00 e0 a9 bd 00 00 f6 bd 00 80 dd be
       -0.097351074 -0.08294678 -0.12011719 -0.4326172
000250 00 60 8b 3c 00 c0 0d bd 00 20 5b 3d 00 40 8c bd
       0.01701355 -0.034606934 0.053497314 -0.068481445
000260 00 e0 f7 be 00 20 7e bc 00 80 e8 bc 00 20 81 3c
       -0.48413086 -0.015510559 -0.028381348 0.01576233
000270 00 e0 f9 bd 00 c0 82 3c 00 e0 0a be 00 e0 e1 bd
       -0.12200928 0.015960693 -0.13562012 -0.11029053
000280 00 60 e8 3c 00 20 3f 3d 00 c0 b9 3e 00 c0 1b 3e
       0.028366089 0.046661377 0.36279297 0.15209961
000290 00 e0 2c 3e 00 e0 f1 bd 00 00 94 3e 00 00 ba 3c
       0.16882324 -0.11810303 0.2890625 0.022705078
0002a0 00 00 09 3f 00 c0 f9 bd 00 20 b1 3c 00 e0 18 40
       0.53515625 -0.12194824 0.021621704 2.3886719
0002b0 00 a0 7e 3d 00 00 84 3b 00 60 19 3e 00 80 52 bf
       0.062164307 0.0040283203 0.14978027 -0.8222656
0002c0 00 80 3c be 00 a0 54 be 00 a0 0e 3f 00 60 08 3e
       -0.18408203 -0.2076416 0.5571289 0.13317871
0002d0 00 40 5b 3d 00 20 d1 be 00 60 b4 3b 00 a0 a0 3e
       0.053527832 -0.40844727 0.005504608 0.3137207
0002e0 00 80 b4 3e 00 20 42 bf 00 80 c5 bd 00 a0 66 be
       0.35253906 -0.7583008 -0.09643555 -0.22521973
0002f0 00 40 a1 be 00 00 9e 3c 00 80 82 be 00 a0 6f bd
       -0.3149414 0.01928711 -0.2548828 -0.058502197
000300 00 00 49 be 00 80 cd 3c 00 20 4a be 00 e0 e6 bc
       -0.19628906 0.02508545 -0.1973877 -0.028182983
000310 00 c0 2c be 00 40 b5 be 00 60 74 be 00 80 7d be
       -0.16870117 -0.3540039 -0.23864746 -0.2475586
000320 00 80 04 be 00 a0 d8 3c 00 00 66 be 00 80 48 3f
       -0.12939453 0.026443481 -0.22460938 0.7832031
000330 00 a0 9c bd 00 00 28 bd 00 c0 22 bf 00 40 ad 3e
       -0.07647705 -0.041015625 -0.6357422 0.3383789
000340 00 e0 b4 3a 00 a0 a7 38 00 40 ca 3e 00 60 0e bf
       0.0013799667 7.992983e-05 0.39501953 -0.55615234
000350 00 20 ba bb 00 a0 74 3e 00 20 06 3c 00 e0 76 3c
       -0.005680084 0.2388916 0.00818634 0.015068054
000360 00 40 26 be 00 80 42 bd 00 00 01 ba 00 e0 e3 bd
       -0.16235352 -0.04748535 -0.00049209595 -0.11126709
000370 00 e0 17 3b 00 a0 3b bc 00 20 bc 3c 00 40 79 bd
       0.0023174286 -0.011451721 0.022964478 -0.06085205
000380 00 00 29 bb 00 a0 d7 ba 00 20 8b be 00 e0 2f 3f
       -0.0025787354 -0.0016450882 -0.27172852 0.6870117
000390 00 80 3a ba 00 00 75 be 00 40 65 3b 00 60 89 bb
       -0.00071144104 -0.23925781 0.0034980774 -0.0041923523
0003a0 00 c0 59 3e 00 80 82 3d 00 c0 e9 3a 00 20 03 3e
       0.21264648 0.0637207 0.001783371 0.12805176
0003b0 00 60 cf 3c 00 a0 53 3c 00 20 65 bc 00 40 74 3d
       0.025314331 0.012916565 -0.01398468 0.059631348
0003c0 00 00 b2 3d 00 c0 66 3d 00 40 41 3f 00 20 36 3f
       0.08691406 0.05633545 0.7548828 0.7114258
0003d0 00 80 c3 bc 00 40 08 bf 00 60 27 3d 00 60 82 bf
       -0.023864746 -0.53222656 0.040863037 -1.0185547
0003e0 00 c0 ea be 00 00 74 3f 00 00 04 3d 00 20 81 3e
       -0.4584961 0.953125 0.032226562 0.25219727
0003f0 00 40 d0 be 00 80 03 3a 00 c0 c3 be 00 e0 95 3e
       -0.40673828 0.0005016327 -0.38232422 0.2927246

depthwise f4 [1, 3, 3, 16]
000000 00 80 d4 bc 00 80 19 3d 00 00 df 3c 00 c0 9f 3c
       -0.025939941 0.037475586 0.02722168 0.019500732
000010 00 a0 7f bb 00 a0 79 bd 00 a0 c7 3c 00 80 74 3c
       -0.003900528 -0.060943604 0.024368286 0.014923096
000020 00 c0 f9 3a 00 80 18 bd 00 60 c7 3d 00 00 d6 3c
       0.0019054413 -0.037231445 0.097351074 0.026123047
000030 00 60 74 3d 00 40 1a bf 00 c0 13 bf 00 00 1c bd
       0.059661865 -0.60253906 -0.57714844 -0.038085938
000040 00 00 f4 bc 00 00 7d 3d 00 e0 cf 3c 00 40 e5 3c
       -0.029785156 0.061767578 0.025375366 0.02798462
000050 00 c0 4d bc 00 00 9a bd 00 40 dd 3c 00 c0 91 3d
       -0.012557983 -0.07519531 0.027008057 0.07116699
000060 00 60 ca 3d 00 20 e3 bd 00 20 b5 3d 00 a0 36 3d
       0.09881592 -0.11090088 0.08843994 0.04458618
000070 00 a0 0a 3c 00 20 66 be 00 40 81 bf 00 e0 47 bd
       0.008460999 -0.22473145 -1.0097656 -0.048797607
000080 00 20 6c bc 00 20 08 3d 00 40 eb 3a 00 60 a2 3c
       -0.014411926 0.033233643 0.0017948151 0.019821167
000090 00 80 08 bc 00 c0 5c 3b 00 80 00 3d 00 60 71 3d
       -0.008331299 0.0033683777 0.03137207 0.058929443
0000a0 00 c0 b5 3d 00 e0 57 bd 00 40 96 3c 00 80 7d 3c
       0.08874512 -0.052703857 0.018341064 0.015472412
0000b0 00 20 21 bd 00 20 e2 3e 00 e0 a5 be 00 a0 03 bd
       -0.03933716 0.4416504 -0.3239746 -0.03213501
0000c0 00 80 ed bc 00 60 85 3d 00 00 0d 3d 00 20 f8 3c
       -0.0289917 0.06512451 0.034423828 0.030288696
0000d0 00 60 a0 bc 00 a0 99 bd 00 e0 de 3c 00 80 6c 3d
       -0.019577026 -0.07501221 0.02720642 0.057739258
0000e0 00 40 aa bd 00 c0 c9 bd 00 20 79 3d 00 60 24 3d
       -0.08312988 -0.09851074 0.060821533 0.040130615
0000f0 00 60 99 3d 00 e0 8f bf 00 e0 1a 3c 00 a0 4a bd
       0.07489014 -1.1240234 0.00945282 -0.049468994
000100 00 00 2d bd 00 40 b0 3d 00 60 4e 3d 00 e0 1b 3d
       -0.042236328 0.08605957 0.05038452 0.03805542
000110 00 60 f1 bc 00 c0 d2 bd 00 00 ac 3c 00 80 ea 3d
       -0.029464722 -0.10290527 0.020996094 0.11450195
000120 00 00 fa 3b 00 c0 1b be 00 e0 5a 3d 00 20 7c 3d
       0.0076293945 -0.15209961 0.05343628 0.061553955
000130 00 c0 93 3d 00 00 9c 3d 00 20 98 3d 00 a0 82 bd
       0.072143555 0.076171875 0.074279785 -0.06378174
000140 00 60 c1 bc 00 80 1d 3d 00 e0 c7 3c 00 80 9b 3c
       -0.023605347 0.03845215 0.024398804 0.018981934
000150 00 20 a6 bc 00 40 81 bc 00 a0 cd 3c 00 c0 87 3d
       -0.02027893 -0.015777588 0.025100708 0.06628418
000160 00 40 97 3d 00 20 65 bd 00 60 f2 ba 00 20 c3 3c
       0.07385254 -0.05593872 -0.0018491745 0.02381897
000170 00 80 3b 3a 00 40 97 3f 00 00 81 3d 00 a0 0f bd
       0.00071525574 1.1816406 0.06298828 -0.035064697
000180 00 00 48 bc 00 80 1a 3d 00 20 00 3c 00 c0 8a 3c
       -0.012207031 0.037719727 0.007820129 0.016937256
000190 00 00 83 bc 00 e0 57 bb 00 20 c2 3c 00 60 46 3d
       -0.015991211 -0.003293991 0.0236969 0.048431396
0001a0 00 20 bc bd 00 60 7e bd 00 c0 03 be 00 60 33 3c
       -0.09185791 -0.06210327 -0.12866211 0.010948181
0001b0 00 60 26 3a 00 00 83 be 00 80 fc 3e 00 00 c9 bc
       0.00063467026 -0.25585938 0.49316406 -0.024536133
0001c0 00 00 ac bc 00 60 1d 3d 00 80 d8 3c 00 20 58 3c
       -0.020996094 0.03842163 0.026428223 0.013191223
0001d0 00 60 9b bc 00 40 cd bc 00 80 55 3c 00 80 46 3d
       -0.018966675 -0.025054932 0.013031006 0.048461914
0001e0 00 60 98 bd 00 00 6a bd 00 00 1c be 00 60 bf 3c
       -0.074401855 -0.057128906 -0.15234375 0.023361206
0001f0 00 20 30 3d 00 20 55 3e 00 a0 83 3f 00 20 d9 bc
       0.042999268 0.20812988 1.0283203 -0.026504517
000200 00 80 61 bc 00 40 73 3c 00 c0 9d 3c 00 c0 44 3b
       -0.013763428 0.014846802 0.019256592 0.0030021667
000210 00 a0 da bb 00 e0 26 ba 00 60 84 3c 00 20 58 3c
       -0.0066719055 -0.0006365776 0.016159058 0.013191223
000220 00 e0 aa bb 00 c0 bf bb 00 e0 26 bd 00 20 08 3c
       -0.005214691 -0.0058517456 -0.040740967 0.008308411
000230 00 20 ae 3c 00 60 9c 3e 00 a0 8f 3e 00 c0 70 bc
       0.021255493 0.30541992 0.28051758 -0.014694214

Conv2D_3 f4 [8, 1, 1, 16]
000000 00 60 15 3f 00 60 ed bd 00 40 2c 3f 00 a0 3c bf
       0.5834961 -0.11590576 0.67285156 -0.7368164
000010 00 80 43 bf 00 e0 43 bf 00 60 cd bd 00 e0 d7 3b
       -0.7636719 -0.7651367 -0.10028076 0.006587982
000020 00 00 ec 3d 00 60 ab be 00 20 41 3f 00 40 b3 be
       0.115234375 -0.3347168 0.75439453 -0.35009766
000030 00 20 a3 3f 00 00 52 3f 00 a0 63 3e 00 c0 c1 3e
       1.2744141 0.8203125 0.22229004 0.37841797
000040 00 c0 b1 3c 00 a0 c8 3d 00 40 79 3e 00 c0 07 bd
       0.021697998 0.097961426 0.2434082 -0.03314209
000050 00 20 a1 3e 00 a0 11 bf 00 60 a9 bc 00 a0 a0 bd
       0.31469727 -0.56884766 -0.02067566 -0.078430176
000060 00 c0 0a bf 00 c0 09 bf 00 80 e3 be 00 c0 23 bf
       -0.5419922 -0.53808594 -0.44433594 -0.63964844
000070 00 c0 1e 3c 00 00 04 bf 00 a0 e6 bd 00 a0 81 be
       0.009689331 -0.515625 -0.11260986 -0.25317383
000080 00 a0 53 3f 00 60 35 3f 00 a0 3d bf 00 20 18 3e
       0.82666016 0.7084961 -0.74072266 0.14855957
000090 00 a0 05 3f 00 a0 1b 3e 00 40 1f 3e 00 60 5e 3e
       0.52197266 0.15197754 0.15551758 0.21716309
0000a0 00 c0 c9 3d 00 a0 58 bf 00 20 ac 3c 00 40 1c 3f
       0.09851074 -0.8461914 0.021011353 0.61035156
0000b0 00 80 4c 3e 00 40 8e bf 00 a0 da bf 00 80 3e 3f
       0.19970703 -1.1113281 -1.7080078 0.7441406
0000c0 00 60 0e 3f 00 00 95 bf 00 c0 36 3f 00 e0 88 3e
       0.55615234 -1.1640625 0.7138672 0.26733398
0000d0 00 a0 0d 3f 00 60 01 3f 00 00 1c 3e 00 00 32 bf
       0.55322266 0.5053711 0.15234375 -0.6953125
0000e0 00 40 be 3d 00 20 13 bf 00 00 12 be 00 c0 10 3f
       0.09289551 -0.57470703 -0.14257812 0.5654297
0000f0 00 20 7c 3f 00 c0 37 3e 00 40 c3 be 00 a0 cb bd
       0.9848633 0.17944336 -0.38134766 -0.09942627
000100 00 20 66 bf 00 e0 ec be 00 a0 db 3d 00 e0 fb 3d
       -0.8989258 -0.46264648 0.10723877 0.12298584
000110 00 60 fa 3e 00 a0 6a 3e 00 20 c1 3e 00 00 11 be
       0.48901367 0.22912598 0.37719727 -0.14160156
000120 00 20 1b 3e 00 40 b1 be 00 a0 42 3d 00 e0 8d 3f
       0.15148926 -0.3461914 0.04751587 1.1083984
000130 00 a0 bc 3e 00 e0 4a 3d 00 80 4a 3d 00 a0 de 3e
       0.3684082 0.04953003 0.049438477 0.43481445
000140 00 60 2d be 00 a0 08 3e 00 a0 4d be 00 00 48 3f
       -0.16931152 0.13342285 -0.20080566 0.78125
000150 00 60 10 3e 00 00 38 be 00 40 aa 3f 00 20 fc 3e
       0.14099121 -0.1796875 1.3300781 0.49243164
000160 00 40 02 3e 00 20 7f 3e 00 40 9a 3d 00 40 ed 3d
       0.12719727 0.24914551 0.07531738 0.11584473
000170 00 80 f5 bd 00 00 dd be 00 60 4d 3e 00 40 b1 be
       -0.11987305 -0.43164062 0.20056152 -0.3461914
000180 00 80 60 3e 00 00 2e 3f 00 00 f1 be 00 e0 8e bd
       0.21923828 0.6796875 -0.47070312 -0.06976318
000190 00 60 35 bd 00 80 ef 3e 00 c0 b3 3e 00 a0 b9 bf
       -0.044281006 0.46777344 0.35107422 -1.4501953
0001a0 00 40 16 be 00 a0 d5 3e 00 60 58 bf 00 60 ed bd
       -0.14672852 0.41723633 -0.84521484 -0.11590576
0001b0 00 00 13 3d 00 60 8d bf 00 80 73 bf 00 80 73 3f
       0.035888672 -1.1044922 -0.9511719 0.9511719
0001c0 00 a0 24 bf 00 40 ba be 00 e0 b1 bd 00 60 ae bd
       -0.6430664 -0.36376953 -0.08685303 -0.08514404
0001d0 00 e0 1c 3e 00 e0 dd be 00 60 bf 3e 00 e0 7d bd
       0.15319824 -0.4333496 0.3737793 -0.0619812
0001e0 00 60 07 3d 00 80 f8 be 00 00 3a 3e 00 c0 dd be
       0.033050537 -0.48535156 0.18164062 -0.43310547
0001f0 00 e0 8d 3d 00 80 37 be 00 00 aa be 00 80 0d 3e
       0.0692749 -0.17919922 -0.33203125 0.1381836

Conv2D_4 f4 [16, 1, 1, 8]
000000 00 e0 93 3e 00 00 37 be 00 80 b0 3e 00 e0 a6 be
       0.28881836 -0.17871094 0.34472656 -0.32592773
000010 00 e0 0e 3f 00 00 51 bf 00 00 e6 3e 00 c0 86 3e
       0.55810547 -0.81640625 0.44921875 0.2631836
000020 00 a0 a4 3c 00 40 85 be 00 00 31 3e 00 00 5c 3f
       0.020095825 -0.2602539 0.17285156 0.859375
000030 00 80 99 3e 00 00 be be 00 40 ba 3c 00 80 85 be
       0.2998047 -0.37109375 0.022735596 -0.2607422
000040 00 40 70 be 00 60 9a be 00 60 bf 3e 00 00 86 bd
       -0.23461914 -0.30151367 0.3737793 -0.06542969
000050 00 00 b6 bd 00 c0 1a be 00 80 ae 3e 00 c0 8b be
       -0.08886719 -0.15112305 0.3408203 -0.27294922
000060 00 40 45 3f 00 20 9d be 00 00 7d 3e 00 40 92 3e
       0.7705078 -0.30688477 0.24707031 0.28564453
000070 00 e0 fb be 00 e0 22 bf 00 e0 ef 39 00 e0 c2 3e
       -0.49194336 -0.63623047 0.00045752525 0.38061523
000080 00 40 8f 3d 00 c0 ae be 00 a0 da 3d 00 20 1f 3e
       0.06994629 -0.3413086 0.10675049 0.15539551
000090 00 80 92 bd 00 c0 61 3e 00 60 40 3f 00 e0 e1 bc
       -0.0715332 0.22045898 0.75146484 -0.027572632
0000a0 00 40 4e 3f 00 20 09 be 00 40 e3 3e 00 20 2d 3d
       0.80566406 -0.13391113 0.44384766 0.042266846
0000b0 00 40 66 3e 00 00 81 3e 00 a0 8e 3e 00 80 89 be
       0.22485352 0.25195312 0.27856445 -0.2685547
0000c0 00 00 f2 3e 00 e0 ac 3d 00 00 3b be 00 40 ce 3e
       0.47265625 0.08441162 -0.18261719 0.40283203
0000d0 00 00 0a bf 00 60 ae bf 00 20 6d be 00 60 b0 be
       -0.5390625 -1.3623047 -0.23156738 -0.34448242
0000e0 00 40 34 3d 00 e0 95 3e 00 80 b1 3d 00 a0 4a 3e
       0.044006348 0.2927246 0.08666992 0.19787598
0000f0 00 e0 06 bd 00 40 f5 bd 00 80 26 3f 00 80 81 bb
       -0.032928467 -0.11975098 0.6503906 -0.0039520264
000100 00 c0 80 be 00 00 83 bd 00 80 8f 3e 00 a0 2a 3f
       -0.25146484 -0.063964844 0.28027344 0.6665039
000110 00 a0 ac 3d 00 c0 71 be 00 60 6a 3e 00 40 29 be
       0.08428955 -0.23608398 0.22888184 -0.1652832
000120 00 c0 69 3d 00 c0 f2 b9 00 20 19 3f 00 20 66 3e
       0.05706787 -0.00046300888 0.59814453 0.22473145
000130 00 c0 85 bc 00 60 5b be 00 00 d9 bb 00 00 71 3e
       -0.016326904 -0.2142334 -0.0066223145 0.23535156
000140 00 80 c4 be 00 40 e8 be 00 c0 b4 3e 00 e0 2c 3f
       -0.38378906 -0.45361328 0.35302734 0.67529297
000150 00 c0 16 bd 00 60 ab be 00 c0 b0 3e 00 c0 1f be
       -0.0368042 -0.3347168 0.34521484 -0.15600586
000160 00 00 68 3e 00 00 4d 3e 00 20 a4 3e 00 00 d7 bb
       0.2265625 0.20019531 0.32055664 -0.0065612793
000170 00 80 3c be 00 20 d7 be 00 40 c8 3e 00 80 b1 3d
       -0.18408203 -0.42016602 0.39111328 0.08666992
000180 00 40 32 bf 00 a0 2c be 00 60 38 3f 00 40 68 bd
       -0.69628906 -0.1685791 0.72021484 -0.05670166
000190 00 80 60 be 00 20 8c be 00 a0 7f 3e 00 40 61 be
       -0.21923828 -0.27368164 0.24963379 -0.2199707
0001a0 00 00 ce be 00 40 1c be 00 c0 f5 3e 00 60 ae 3e
       -0.40234375 -0.15258789 0.47998047 0.34057617
0001b0 00 e0 e3 3c 00 c0 4c be 00 e0 c9 3e 00 c0 1f be
       0.027816772 -0.19995117 0.3942871 -0.15600586
0001c0 00 40 27 be 00 a0 46 3e 00 20 02 3f 00 80 07 3e
       -0.16333008 0.19396973 0.5083008 0.13232422
0001d0 00 c0 1c 3d 00 e0 50 be 00 40 86 3e 00 00 c3 be
       0.038269043 -0.20397949 0.26220703 -0.38085938
0001e0 00 20 f9 3e 00 c0 8b bd 00 80 b0 3e 00 c0 98 3e
       0.48657227 -0.068237305 0.34472656 0.29833984
0001f0 00 00 80 bf 00 c0 d6 be 00 00 9f 3e 00 60 8e 3d
       -1.0 -0.4194336 0.31054688 0.06951904
